…
        "dow_embedding_dim": 24,
        "spatial_embedding_dim": 0,
        "adaptive_embedding_dim": 80,
        "feed_forward_dim": 152,
        "num_layers": 3,
        "dropout": 0.1,
        "use_tinyatt": true,
        "dataset": "pems08"
    }
}
=========================================================================================================
Layer (type:depth-idx)                                  Output Shape              Param #
=========================================================================================================
Cy2Mixer                                                [16, 12, 170, 1]          163,200
├─Linear: 1-1                                           [16, 12, 170, 24]         96
├─Embedding: 1-2                                        [16, 12, 170, 24]         6,912
├─Embedding: 1-3                                        [16, 12, 170, 24]         168
├─ModuleList: 1-4                                       --                        --
│    └─Cy2Mixer_layer: 2-1                              [16, 12, 170, 152]        --
│    │    └─Cy2MixerBlock: 3-1                          [16, 170, 12, 152]        164,150
│    │    └─LayerNorm: 3-2                              [16, 12, 170, 152]        304
│    │    └─Dropout: 3-3                                [16, 12, 170, 152]        --
│    │    └─Cy2MixerBlock: 3-4                          [16, 12, 170, 152]        186,962
│    │    └─LayerNorm: 3-5                              [16, 12, 170, 152]        304
│    │    └─Dropout: 3-6                                [16, 12, 170, 152]        --
│    │    └─Cy2MixerBlock: 3-7                          [16, 12, 170, 152]        186,962
│    │    └─LayerNorm: 3-8                              [16, 12, 170, 152]        304
│    │    └─Dropout: 3-9                                [16, 12, 170, 152]        --
│    │    └─Conv2d: 3-10                                [16, 152, 170, 12]        69,464
│    └─Cy2Mixer_layer: 2-2                              [16, 12, 170, 152]        --
│    │    └─Cy2MixerBlock: 3-11                         [16, 170, 12, 152]        164,150
│    │    └─LayerNorm: 3-12                             [16, 12, 170, 152]        304
│    │    └─Dropout: 3-13                               [16, 12, 170, 152]        --
│    │    └─Cy2MixerBlock: 3-14                         [16, 12, 170, 152]        186,962
│    │    └─LayerNorm: 3-15                             [16, 12, 170, 152]        304
│    │    └─Dropout: 3-16                               [16, 12, 170, 152]        --
│    │    └─Cy2MixerBlock: 3-17                         [16, 12, 170, 152]        186,962
│    │    └─LayerNorm: 3-18                             [16, 12, 170, 152]        304
│    │    └─Dropout: 3-19                               [16, 12, 170, 152]        --
│    │    └─Conv2d: 3-20                                [16, 152, 170, 12]        69,464
│    └─Cy2Mixer_layer: 2-3                              [16, 12, 170, 152]        --
│    │    └─Cy2MixerBlock: 3-21                         [16, 170, 12, 152]        164,150
│    │    └─LayerNorm: 3-22                             [16, 12, 170, 152]        304
│    │    └─Dropout: 3-23                               [16, 12, 170, 152]        --
│    │    └─Cy2MixerBlock: 3-24                         [16, 12, 170, 152]        186,962
│    │    └─LayerNorm: 3-25                             [16, 12, 170, 152]        304
│    │    └─Dropout: 3-26                               [16, 12, 170, 152]        --
│    │    └─Cy2MixerBlock: 3-27                         [16, 12, 170, 152]        186,962
│    │    └─LayerNorm: 3-28                             [16, 12, 170, 152]        304
│    │    └─Dropout: 3-29                               [16, 12, 170, 152]        --
│    │    └─Conv2d: 3-30                                [16, 152, 170, 12]        69,464
├─Linear: 1-5                                           [16, 170, 12]             21,900
=========================================================================================================
Total params: 2,017,626
Trainable params: 2,017,626
Non-trainable params: 0
Total mult-adds (G): 34.69
=========================================================================================================
Input size (MB): 0.39
Forward/backward pass size (MB): 4072.17
Params size (MB): 7.41
…
